models/jarvis.tflite (tflite, 206748 bytes, 9 tensors)

Const_1 f4 [32]
-0.019067718 -0.019207554 0.0024132323 -0.021230724 0.017725907 -0.0020854922 -0.00875367 0.00950091
0.011528675 -0.014460687 -0.01929373 0.01503615 -0.0078120506 0.022665214 0.004194408 -0.0042531886
-0.009321436 -0.014572701 0.018717868 -0.004135793 -0.00042036435 0.016422018 0.01799196 0.011050605
0.009449571 -0.016261967 -0.016271878 0.020444108 0.0020905803 0.009417563 0.018635996 0.020216173
00000000: e733 9cbc 2959 9dbc 5227 1e3b 0eec adbc
00000010: ec35 913c c1ac 08bb 8e6b 0fbc b4a9 1b3c
00000020: c5e2 3c3c 84ec 6cbc e20d 9ebc 2f5a 763c
00000030: 3bfc ffbb 66ac b93c 3f71 893b 555e 8bbb
00000040: f0b8 18bc 57c2 6ebc 3756 993c 8c85 87bb
00000050: 5964 dcb9 7887 863c e063 933c 990d 353c
00000060: 60d2 1a3c d137 85bc 9a4c 85bc 677a a73c
00000070: 1e02 093b 1f4c 1a3c 84aa 983c 639c a53c

Const_2 f4 [32]
1.0198655 0.9883476 0.9818706 1.0017092 0.990905 1.0091721 1.0044843 1.006067
0.9710343 1.0089167 0.9845236 0.9970341 0.9619516 0.99389917 1.0253724 1.0247636
0.9960888 0.99419403 0.99303985 0.99034595 1.0079488 0.95547926 0.98793566 0.99557686
1.0272278 1.0208031 1.0153182 0.99936354 0.99285907 1.0170139 1.005259 0.9778968
00000000: f48a 823f 5904 7d3f df5b 7b3f 0238 803f
00000010: f3ab 7d3f 8d2c 813f f192 803f cec6 803f
00000020: b495 783f 2f24 813f bd09 7c3f a03d 7f3f
00000030: 7642 763f 2d70 7e3f 673f 833f 742b 833f
00000040: adff 7e3f 8083 7e3f dc37 7e3f 5087 7d3f
00000050: 7704 813f 4a9a 743f 5ae9 7c3f 20de 7e3f
00000060: 337c 833f ada9 823f f2f5 813f 4ad6 7f3f
00000070: 032c 7e3f 832d 823f 54ac 803f 7257 7a3f

Const_3 f4 [32]
0.014969228 -0.008881104 -0.015290604 -0.008053476 -0.014286777 0.020787422 0.0028549286 0.005960795
0.0047685257 0.0007346361 -0.019841615 -0.011372558 0.010308684 -0.015876073 0.025722086 0.004048936
-0.014084502 0.035377 -0.011941229 -0.01023245 0.004635834 -0.015237784 0.0047238455 0.00010312078
0.028820038 0.011311618 0.014776804 -0.008482901 0.034684926 0.006158325 0.045269866 -0.0013815732
00000000: 7e41 753c 0d82 11bc 7185 7abc baf2 03bc
00000010: 1613 6abc 624a aa3c c119 3b3b c652 c33b
00000020: 4b41 9c3b 9894 403a e28a a2bc f753 3abc
00000030: c1e5 283c 8a0e 82bc 20b7 d23c f0ac 843b
00000040: afc2 66bc 79e7 103d 25a5 43bc 02a6 27bc
00000050: 32e8 973b e6a7 79bc 7dca 9a3b 8c42 d838
00000060: 0018 ec3c 5d54 393c 681a 723c defb 0abc
00000070: c811 0e3d c6cb c93b e56c 393d e715 b5ba

Const_5 f4 [32]
-0.093696676 0.11041896 0.030196905 -0.05615256 -0.1271379 -0.13227384 -0.16004972 -0.0016091588
0.10493584 -0.0019848756 0.056287054 -0.0923253 -0.1719249 0.02879405 -0.0825321 0.01034113
-0.16332263 -0.06702032 0.013028015 0.11202214 0.16401802 0.17815775 -0.032383367 0.000887011
0.04727767 -0.027447253 -0.02484358 -0.15112965 0.06313216 0.1190242 -0.11683989 0.11657236
00000000: 0be4 bfbd 5623 e23d 805f f73c 3a00 66bd
00000010: 7030 02be cb72 07be 13e4 23be 69ea d2ba
00000020: 9ae8 d63d b014 02bb 418d 663d 0c15 bdbd
00000030: 150d 30be 80e1 eb3c 9706 a9bd d86d 293c
00000040: 0c3e 27be f341 89bd 7573 553c dd6b e53d
00000050: 57f4 273e fc6e 363e 6ca4 04bd 4d86 683a
00000060: 3ba6 413d 10d9 e0bc c384 cbbc bbc1 1abe
00000070: 6f4b 813d f6c2 f33d c149 efbd 7dbd ee3d

Const_6 f4 [32]
1.1156824 0.9879706 1.0419053 1.0590756 1.0034449 1.0735407 1.031026 1.1125506
1.2770132 0.99640536 1.0683627 0.9908258 1.0098306 1.2431532 1.0408317 1.250257
1.0396374 1.028921 0.9082929 1.2905841 1.2783368 1.0496535 1.0004904 1.2644172
1.0130104 1.0092523 1.0476013 1.2440157 0.98076206 1.217962 1.1053672 0.97579926
00000000: aece 8e3f a4eb 7c3f 275d 853f ca8f 873f
00000010: e270 803f c869 893f a9f8 833f 0f68 8e3f
00000020: 2b75 a33f 6c14 7f3f 1cc0 883f c2a6 7d3f
00000030: 2142 813f a51f 9f3f f939 853f 6c08 a03f
00000040: d712 853f afb3 833f e285 683f dc31 a53f
00000050: 8aa0 a33f 0c5b 863f 1210 803f 6cd8 a13f
00000060: 53aa 813f 2e2f 813f cd17 863f e83b 9f3f
00000070: 3913 7b3f 2ee6 9b3f ac7c 8d3f fbcd 793f

Const_7 f4 [32]
0.053993836 -0.018181756 0.014623196 0.049519867 0.0065043275 0.066659465 0.022150451 0.06640496
0.25493005 -0.0102179535 0.052584298 0.001999656 0.019855762 0.24238718 0.047872193 0.24233769
0.024898564 0.025756475 -0.0714939 0.26489323 0.2577286 0.02998962 -0.0014624953 0.25380585
0.003275057 0.019610627 0.052908055 0.24603303 -0.026472235 0.23835778 0.090564154 -0.021343544
00000000: a428 5d3d e8f1 94bc 2196 6f3c 58d5 4a3d
00000010: 4122 d53b c284 883d dd74 b53c 53ff 873d
00000020: 3186 823e 3469 27bc a262 573d a90c 033b
00000030: 8da8 a23c 5834 783e a215 443d 5f27 783e
00000040: 13f8 cb3c 3eff d23c 656b 92bd 16a0 873e
00000050: 01f5 833e cbac f53c 33b1 bfba d7f2 813e
00000060: 57a2 563b 77a6 a03c 1eb6 583d 15f0 7b3e
00000070: 4ddc d8bc 1014 743e b379 b93d a8d8 aebc

MatMul f4 [32, 1536]
0.004954687 -0.014823443 -0.006533603 0.0026763738 -0.00097209594 0.01512321 -0.011313566 -0.007394915
-0.0011149205 0.003980289 -0.0077860425 0.0026155424 -0.0013772656 -0.0029934878 0.0150617445 0.006127457
-0.003929489 0.011419495 -0.038300976 -0.012685731 -0.012808123 0.016371645 -0.009785911 -0.017790955
-0.017517123 0.0068478817 -0.0153290685 -0.014384813 -0.011435227 0.013347986 0.0050500636 -0.0042463266
0.0050991583 -0.020979848 -0.005296498 0.012997732 -0.020842642 -0.006660572 -0.026139261 -0.0022895832
0.008443625 -0.014773168 -0.008718831 0.0029439356 0.008610472 -0.004947068 -0.02872774 -0.013962185
0.020848494 0.013748748 0.017660132 -0.02006317 -0.011796773 -0.02588878 -0.0021534418 0.004608723
0.011431312 0.025543472 0.021333257 -0.011196369 0.0034962525 0.017356204 0.0046072425 0.020703869
0.020539429 0.008318889 -0.028726567 -0.004915118 -0.008708849 -0.0390814 0.0086273905 0.008563505
-0.024778752 0.006815562 0.01966324 -0.0011160334 -0.020356046 0.030827904 -0.0109742135 0.00018402515
0.010776959 0.0074602743 -0.026315287 0.0067068064 0.023281535 -0.010743366 -0.012623264 0.004812808
-0.016539875 0.01493614 0.015910013 0.0010605467 0.023872254 0.021038875 0.004703712 0.014877789
0.008702256 0.0038981177 0.020973468 -0.00086783903 -0.004995297 0.020769067 0.01432511 -0.01753442
0.02789457 0.023014326 -0.017656751 -0.01697361 -0.006340056 -0.008225762 0.005766829 0.052492887
0.004252035 0.03163538 -0.032171506 -0.008078357 0.0277148 -0.0041756346 -0.025180355 0.012251967
-0.023962773 0.0033657085 0.005514443 -0.022462761 -0.018530088 0.028583238 0.004953024 -0.0013784184
-0.020761864 -0.010577242 0.021603888 0.013341916 0.0020193886 -0.0045458246 -0.00390805 -0.012699137
0.0040207477 -0.010348058 -0.0020170286 -0.008470833 0.005041359 0.009513093 -0.0235027 -0.014628643
0.020086218 -0.026823143 -0.0024540513 -0.022160094 -0.014355691 -0.019906916 -0.004463454 -0.0094906995
0.025879642 0.023184182 0.0030510174 -0.01601236 0.001235972 0.013613035 -0.00022990258 0.032377925
0.022014719 0.011259082 -0.02853948 0.002847925 0.024589643 0.009283946 0.036786664 -0.0056337425
-0.027079169 0.010402355 0.0143960845 0.01702194 -0.016049616 -0.0059340545 -0.012103373 -0.01962742
-0.032028433 0.015799526 0.01921008 -0.014748777 0.009559658 0.00041324008 0.025979867 -0.0015709378
-0.0415674 0.006300023 -0.013652112 0.0026297425 0.020992925 -0.016018657 -0.039683003 -0.023118827
-0.024907172 -0.0027106572 -0.017508147 -0.019122679 -0.010781052 0.011308948 0.0021813703 0.0068413396
0.03231189 0.006131647 0.00012762453 -0.038787574 -0.0037188546 -0.013018914 0.013383941 0.012540098
0.026652858 0.02001133 0.014827995 -0.0014295396 0.02048904 0.025112333 0.0038422716 0.015062388
-0.017738499 0.008198909 0.014143436 0.0034191124 -0.012547114 -0.029684504 -0.010573613 0.0047356864
-0.003942767 0.009965465 -0.018870136 -0.0006213923 0.022861961 0.024937725 -0.012024289 -0.013467157
0.0006018319 0.027817607 0.03119601 0.014688216 0.027587645 0.010905933 0.0092234025 0.024438713
0.009796374 -0.0191843 -0.010997169 -0.020417064 0.026886463 -0.0033393507 0.006157585 0.010213561
-0.00888956 0.027742572 0.01585887 -0.0015191556 -0.012200664 -0.013851458 -0.031512722 0.026937675
00000000: ed5a a23b 07de 72bc d617 d6bb 1a66 2f3b
00000010: 41d4 7eba 57c7 773c 895c 39bc 0b51 f2bb
00000020: 8622 92ba 166d 823b 0f22 ffbb 8569 2b3b
00000030: 5d85 b4ba 642e 44bb 89c5 763c d6c8 c83b
00000040: f1c2 80bb d518 3b3c 7ce1 1cbd d0d7 4fbc
00000050: 29d9 51bc d41d 863c 1655 20bc 56be 91bc
00000060: 1280 8fbc 3264 e03b c626 7bbc 47ae 6bbc
00000070: d15a 3bbc 83b1 5a3c 017b a53b c524 8bbb
00000080: d716 a73b eedd abbc 3f8e adbb 70f4 543c
00000090: 30be aabc ed40 dabb 0122 d6bc d50c 16bb
000000a0: 2157 0a3c 280b 72bc 6ed9 0ebc 0bef 403b
000000b0: f012 0d3c 041b a2bb 7056 ebbc a6c1 64bc
000000c0: 76ca aa3c 6e42 613c fbab 903c 845b a4bc
000000d0: 4147 41bc b514 d4bc c220 0dbb c504 973b
000000e0: 664a 3b3c 8b40 d13c 15c3 ae3c fa70 37bc
000000f0: 6221 653b 992e 8e3c 5af8 963b 299b a93c
00000100: 4e42 a83c f34b 083c fa53 ebbc 000f a1bb
00000110: 8faf 0ebc d113 20bd e659 0d3c f14d 0c3c
00000120: cffc cabc 1455 df3b ce14 a13c de47 92ba
00000130: b9c1 a6bc cd8a fc3c 30cd 33bc e0f6 4039
00000140: d891 303c 5175 f43b 2893 d7bc c5c4 db3b
00000150: ebb8 be3c f104 30bc cfd1 4ebc c2b4 9d3b
00000160: a27e 87bc b6b6 743c b755 823c 0b02 8b3a
00000170: bf8f c33c b859 ac3c 9921 9a3b f8c1 733c
00000180: e893 0e3c 9077 7f3b 8dd0 ab3c b17f 63ba
00000190: 97af a3bb e423 aa3c deb3 6a3c 58a4 8fbc
000001a0: 2783 e43c 8a88 bc3c e4a4 90bc 3d0c 8bbc
000001b0: 3fc0 cfbb 59c5 06bc abf7 bc3b c802 573d
000001c0: a854 8b3b 1a94 013d 45c6 03bd 165b 04bc
000001d0: 260a e33c c3d3 88bb 0847 cebc 79bc 483c
000001e0: 944d c4bc 3893 5c3b 80b2 b43b d303 b8bc
000001f0: 69cc 97bc 6527 ea3c fa4c a23b 0cac b4ba
00000200: c914 aabc 2b4c 2dbc a3fa b03c 0d98 5a3c
00000210: b857 043b 24f5 94bb 190f 80bb 0b10 50bc
00000220: 7ac0 833b e78a 29bc 2030 04bb 40c9 0abc
00000230: fc31 a53b cedc 1b3c bc88 c0bc faac 6fbc
00000240: da8b a43c 35bc dbbc 26d4 20bb 1689 b5bc
00000250: 2234 6bbc d413 a3bc 2a42 92bb e17e 1bbc
00000260: 8b01 d43c c1ec bd3c 94f3 473b 5a2c 83bc
00000270: 5700 a23a 3509 5f3c 0112 71b9 b79e 043d
00000280: 3658 b43c 0378 383c a1cb e9bc 41a4 3a3b
00000290: 3870 c93c b11b 183c 9dad 163d 429b b8bb
000002a0: 22d5 ddbc a46e 2a3c 8edd 6b3c 9871 8b3c
000002b0: 7c7a 83bc 7572 c2bb 3a4d 46bc afc9 a0bc
000002c0: 3f30 03bd 026e 813c 755e 9d3c dba4 71bc
000002d0: 1da0 1c3c 25a8 d839 bbd3 d43c ede7 cdba
000002e0: 9442 2abd 6c70 ce3b 1cad 5fbc c257 2c3b
000002f0: 5bf9 ab3c 8f39 83bc a58a 22bd b263 bdbc
00000300: 200a ccbc 48a5 31bb 3f6d 8fbc 2aa7 9cbc
00000310: 02a3 30bc 2a49 393c 52f5 0e3b 512d e03b
00000320: 7959 043d fceb c83b f3d2 0539 b8df 1ebd
00000330: 07b8 73bb 484d 55bc 5148 5b3c fc74 4d3c
00000340: 1857 da3c cdee a33c 1ef1 723c 645f bbba
00000350: a2d8 a73c 61b8 cd3c 9fce 7b3b 3cc8 763c
00000360: 5450 91bc b854 063c dfb9 673c 3013 603b
00000370: 6992 4dbc eb2c f3bc f33c 2dbc d12d 9b3b
00000380: 5432 81bb 3146 233c 8b95 9abc eee4 22ba
00000390: 0249 bb3c 334a cc3c 8601 45bc 5aa5 5cbc
000003a0: 41c4 1d3a c0e1 e33c c68e ff3c d8a6 703c
000003b0: 7cff e13c ccae 323c c11d 173c b233 c83c
000003c0: f880 203c 6528 9dbc 782d 34bc b041 a7bc
000003d0: 0041 dc3c 02d9 5abb 91c5 c93b c856 273c
000003e0: 84a5 11bc 6444 e33c 76ea 813c 671e c7ba
000003f0: 4be5 47bc 3af1 62bc 7c13 01bd 66ac dc3c

MatMul_1 f4 [32, 32]
0.009640341 0.00035628793 0.008335501 0.14715701 -0.14023796 0.17666197 -0.18517616 -0.11277586
0.10223894 -0.09304529 0.06543834 -0.06554831 -0.11238162 -0.17096183 0.096028075 0.15992808
0.048980407 0.13060887 -0.14688142 -0.019516714 -0.05210644 -0.013372193 -0.036730923 -0.1351116
0.17464009 -0.039032057 -0.1131194 0.16446818 0.08871699 0.106138535 0.17404686 -0.047398157
-0.06893791 -0.06786274 -0.056354236 -0.13510588 0.050597828 0.10437425 -0.16066019 -0.007445905
0.09755442 -0.12917915 -0.16744082 -0.14967217 -0.047794905 -0.092111625 -0.07915391 -0.091268815
0.1472937 -0.1034958 -0.057012927 -0.011920033 0.14840205 0.06037925 -0.11792569 0.04991985
0.029525664 -0.12950164 0.07034401 0.077689506 -0.023466444 -0.06646948 0.17836277 0.16131055
0.06528809 -0.07234276 0.012188406 0.1329573 0.1708664 0.009404005 -0.020977998 0.06784362
-0.08242362 -0.112138 -0.08024714 -0.054441765 -0.09400528 -0.031685162 -0.036981184 0.09244531
-0.15030465 -0.09316247 0.029164953 -0.07316002 0.039763376 0.1981394 0.117768504 -0.17559522
0.114461556 -0.14140151 0.10956706 0.15190218 0.15403126 0.17925325 -0.11049122 -0.08935634
-0.027898531 0.1506253 0.14116606 -0.16330609 -0.12515223 0.108559035 -0.041778978 -0.08192088
-0.08613586 0.043437306 -0.14690858 0.004518043 -0.15803534 0.027265213 -0.10025137 0.19925675
0.1525229 0.10386451 0.15572166 0.09673428 0.00489872 0.20000383 -0.17134485 -0.094941266
-0.0036036142 0.043060936 -0.09129962 -0.017335376 0.0072014513 0.07037997 0.11083052 0.085970655
-0.093942165 -0.11789123 -0.095384456 -0.11307342 0.103257224 0.003715744 -0.08568539 0.10398783
0.10705614 0.15065634 0.11881717 -0.0008351536 -0.094994545 -0.05695812 0.11324961 0.08634909
-0.006046815 -0.11867243 -0.11694112 0.012297586 -0.07520278 -0.08621456 -0.159127 -0.1153072
-0.11441818 0.08532915 -0.08280378 0.0035265933 0.063077144 0.05185007 -0.043368515 0.13675891
0.14447404 -0.015037215 -0.122818395 -0.05760197 0.053792723 0.013021111 -0.08268898 -0.1459759
0.15509303 -0.16066095 0.09317374 0.0008196975 0.019149762 -0.124424264 0.17819886 0.1792873
0.15414414 -0.0049526095 0.05065359 0.10052543 -0.11606565 -0.004265751 0.07140102 -0.11838002
0.008724695 -0.06709351 0.0637319 -0.064435706 0.021505324 0.17185338 0.043533783 -0.12711103
-0.15916741 -0.033636432 0.110306464 -0.07815057 -0.087772235 -0.08070049 0.11519695 -0.09483047
0.079962395 0.097631946 0.15188906 0.029846692 -0.11808835 0.07638584 0.09764244 0.03460438
-0.078382775 0.04677316 -0.06694188 0.12268438 0.013973912 0.0056052087 -0.0028206126 0.11127709
0.07674727 0.07124469 0.03358996 0.035748225 0.13879701 0.14314963 -0.109504215 -0.1139357
0.08093485 0.045675747 -0.12459887 0.059739232 -0.038367506 -0.06520903 -0.16455162 -0.14628811
0.16367935 0.106522284 0.014996794 0.1649935 0.03391987 0.07358936 0.07277316 0.10834398
0.058294926 0.11184832 -0.05115157 -0.11798899 0.15541469 -1.6166485e-05 -0.1322286 -0.04772343
0.24761765 -0.17742063 0.0071408353 0.1104845 -0.0868624 -0.10135285 0.15140347 0.013632437
00000000: 85f2 1d3c 28cc ba39 a091 083c 54b0 163e
00000010: 8a9a 0fbe e0e6 343e d29e 3dbe 08f7 e6bd
00000020: a662 d13d 878e bebd 8904 863d 313e 86bd
00000030: 5628 e6bd 9e10 2fbe 5eaa c43d 30c4 233e
00000040: ae9f 483d 55be 053e 1568 16be 84e1 9fbc
00000050: 906d 55bd 0b17 5bbc 2a73 16bd b25a 0abe
00000060: dad4 323e 14e0 1fbd 25ab e7bd 596a 283e
00000070: 41b1 b53d 295f d93d 5739 323e 9224 42bd
00000080: 522f 8dbd 9ffb 8abd b3d3 66bd 3259 0abe
00000090: ab3f 4f3d 2bc2 d53d 1b84 24be c7fc f3bb
000000a0: 9dca c73d 8a47 04be 9b75 2bbe a943 19be
000000b0: 97c4 43bd 05a5 bcbd 721b a2bd 25eb babd
000000c0: 29d4 163e 9bf5 d3bd 6386 69bd 3e4c 43bc
000000d0: b5f6 173e 3c50 773d 0683 f1bd c278 4c3d
000000e0: cedf f13c 149c 04be 8510 903d ad1b 9f3d
000000f0: b33c c0bc 2721 88bd bba4 363e 982e 253e
00000100: c3b5 853d 7128 94bd e1b1 473c f525 083e
00000110: 9af7 2e3e 4113 1a3c 0dda abbc 99f1 8a3d
00000120: b7cd a8bd 9ca8 e5bd 9d58 a4bd 54fe 5ebd
00000130: d785 c0bd 4dc8 01bd 9579 17bd f753 bd3d
00000140: 76e9 19be f7cb bebd 57eb ee3c ecd4 95bd
00000150: ecde 223d 0ee5 4a3e 9d30 f13d 3ccf 33be
00000160: d26a ea3d 8fcb 10be b264 e03d 3f8c 1b3e
00000170: 5fba 1d3e 2a8e 373e 3949 e2bd 7500 b7bd
00000180: 768b e4bc 853d 1a3e d68d 103e b639 27be
00000190: e827 00be 3354 de3d 6f20 2bbd 22c6 a7bd
000001a0: ff67 b0bd 51eb 313d 346f 16be 170c 943b
000001b0: 04d4 21be 4c5b df3c 9750 cdbd f609 4c3e
000001c0: f72e 1c3e ebb6 d43d 8075 1f3e 9f1c c63d
000001d0: 7185 a03b cecd 4c3e 0675 2fbe 9170 c2bd
000001e0: 9d2a 6cbb aa60 303d 4cfb babd eb02 8ebc
000001f0: 27fa eb3b 6023 903d 1dfb e23d 6211 b03d
00000200: c064 c0bd f570 f1bd ed58 c3bd 0a93 e7bd
00000210: 8678 d33d d783 733b d27b afbd 92f7 d43d
00000220: 4040 db3d a845 1a3e 6b56 f33d 36ee 5aba
00000230: 808c c2bd eb4c 69bd 69ef e73d cbd7 b03d
00000240: 5c24 c6bb 880a f3bd d37e efbd d07b 493c
00000250: ea03 9abd 4291 b0bd 30f2 22be 2e26 ecbd
00000260: 1454 eabd 0dc1 ae3d 0795 a9bd 6b1e 673b
00000270: 972e 813d bd60 543d 2fa3 31bd 870a 0c3e
00000280: 01f1 133e a75e 76bc 3688 fbbd 0bf0 6bbd
00000290: c255 5c3d 7f56 553c d758 a9bd b57a 15be
000002a0: b5d0 1e3e 4e84 24be e0d1 be3d f8e0 563a
000002b0: f6df 9c3c 26d2 febd c379 363e 1797 373e
000002c0: f6d7 1d3e 8049 a2bb 247a 4f3d 47e0 cd3d
000002d0: d4b3 edbd b7c7 8bbb b33a 923d 3971 f2bd
000002e0: 06f2 0e3c 5268 89bd df85 823d def6 83bd
000002f0: ef2b b03c 55fa 2f3e 7b50 323d 6529 02be
00000300: c8fc 22be 5bc6 09bd 5be8 e13d 680d a0bd
00000310: eec1 b3bd 4c46 a5bd 61ec eb3d 7a36 c2bd
00000320: 53c3 a33d 42f3 c73d ce88 1b3e 0d81 f43c
00000330: 4ed8 f1bd 2e70 9c3d c2f8 c73d 53bd 0d3d
00000340: 2687 a0bd 3795 3f3d d318 89bd f341 fb3d
00000350: d6f2 643c e6ab b73b 07da 38bb 3ee5 e33d
00000360: ac2d 9d3d bce8 913d a095 093d bb6c 123d
00000370: ce20 0e3e d195 123e bf43 e0bd 1f57 e9bd
00000380: 2cc1 a53d 7e16 3b3d b12d ffbd 20b1 743d
00000390: 3f27 1dbd 508c 85bd 3880 28be 8dcc 15be
000003a0: 8f9b 273e 5b28 da3d 1db5 753c 0ef4 283e
000003b0: 90ef 0a3d 05b6 963d 180a 953d 73e3 dd3d
000003c0: a9c6 6e3d bb10 e53d 4f84 51bd 36a4 f1bd
000003d0: 0725 1f3e 439d 87b7 ef66 07be a579 43bd
000003e0: 7b8f 7d3e c1ad 35be abfd e93b b345 e23d
000003f0: eae4 b1bd 1592 cfbd 8309 1b3e 965a 5f3c

MatMul_2 f4 [1, 32]
0.11602082 0.019607551 0.08805032 0.08930053 -0.057016563 0.11572207 0.08113856 0.17588559
-0.36937246 0.11090815 0.07263003 -0.017643774 -0.049537648 -0.37895375 0.12396638 -0.3883444
0.20595026 0.037175644 -0.0014248438 -0.34448075 -0.34905964 0.058128677 0.10764124 -0.34827814
0.019611781 -0.019252086 0.051742963 -0.36874342 -0.013281816 -0.3657253 0.09784957 0.0022484607
00000000: 539c ed3d 04a0 a03c ba53 b43d 32e3 b63d
00000010: 338a 69bd b1ff ec3d f92b a63d 5a1b 343e
00000020: 631e bdbe d023 e33d 0ebf 943d ad89 90bc
00000030: fde7 4abd 3a06 c2be 16e2 fd3d 14d5 c6be
00000040: a0e4 523e 7d45 183d d3c1 baba c85f b0be
00000050: f2b7 b2be 5618 6e3d 0373 dc3d 8351 b2be
00000060: e3a8 a03c 8db6 9dbc 6ef0 533d f0cb bcbe
00000070: f99b 59bc 5940 bbbe 5b65 c83d e95a 133b
