models/jarvis.tflite (tflite, 60808 bytes, 18 tensors)

tfl.pseudo_qconst1 i1 [1, 1088] scale=0.0009952332 zero_point=0
-0.041799795 -0.041799795 0.060709223 0.026871296 -0.047771193 -0.032842696 0.08459482 -0.008957099
-0.011942798 0.06469016 0.092556685 0.015923731 0.032842696 0.031847462 0.09952332 0.10250902
0.06568539 0.04080456 0.05573306 0.029856995 0.06867109 -0.051752128 0.04976166 -0.020899897
-0.02786653 0.08359959 0.013933265 -0.056728292 0.092556685 0.016918965 0.09852809 -0.015923731
0.08459482 -0.02786653 0.089570984 0.034833163 -0.039809328 -0.045780726 0.035828397 0.012938032
0.023885597 -0.032842696 -0.05374259 -0.032842696 -0.035828397 0.054737825 0.11246135 0.07762819
0.019904664 0.010947565 0.08758052 0.07464249 0.04279503 -0.015923731 0.04080456 0.08459482
-0.0039809328 0.015923731 0.057723526 0.019904664 -0.0039809328 0.10449948 -0.012938032 0.014928497
0.08559006 -0.056728292 0.095542386 0.08658529 0.04677596 0.005971399 0.009952332 0.07464249
0.052747358 0.050756894 -0.012938032 0.06269969 -0.02488083 -0.035828397 0.10947565 0.048766427
0.04279503 -0.005971399 0.005971399 0.04279503 0.014928497 -0.011942798 0.07066156 0.004976166
0.08559006 0.011942798 0.004976166 0.019904664 -0.036823627 0.014928497 0.079618655 0.026871296
0.052747358 0.07862342 0.060709223 -0.010947565 -0.050756894 -0.060709223 -0.009952332 0.07066156
0.03383793 -0.041799795 -0.05374259 0.02786653 0.056728292 0.08160912 0.07066156 0.061704457
0.010947565 0.089570984 -0.041799795 0.08658529 0.0069666323 0.06469016 0.0069666323 -0.012938032
0.047771193 -0.023885597 -0.04279503 0.04379026 -0.030852228 0.034833163 -0.009952332 0.08160912
0.07464249 0.07563772 0.009952332 0.02488083 0.0039809328 0.0079618655 0.02488083 -0.054737825
0.017914198 0.06269969 -0.0009952332 -0.031847462 0.05971399 0.0079618655 0.10648995 -0.023885597
0.031847462 -0.017914198 0.020899897 0.04677596 -0.0079618655 -0.02488083 0.08061389 -0.005971399
0.010947565 0.06867109 0.0 0.041799795 0.034833163 -0.014928497 -0.011942798 0.06767586
0.061704457 0.051752128 0.04379026 -0.030852228 0.022890363 -0.017914198 0.036823627 -0.02488083
-0.04279503 0.06867109 -0.05374259 0.026871296 -0.035828397 0.041799795 0.025876064 0.0079618655
-0.010947565 0.08658529 -0.031847462 0.011942798 0.013933265 0.079618655 0.07265202 0.063694924
-0.0029856996 -0.02488083 0.02786653 0.005971399 0.08359959 0.09156145 0.05374259 0.0029856996
0.004976166 0.048766427 -0.017914198 0.054737825 -0.011942798 0.063694924 0.08559006 -0.034833163
0.061704457 0.07563772 0.051752128 -0.056728292 -0.017914198 0.057723526 0.06767586 0.03781886
0.108480416 0.082604356 0.032842696 0.08359959 0.04976166 -0.0009952332 0.08857575 0.06269969
-0.023885597 0.09852809 0.051752128 -0.0009952332 0.009952332 0.04379026 0.10151379 0.052747358
-0.030852228 0.07066156 0.036823627 -0.02786653 0.08459482 -0.047771193 0.08459482 0.036823627
-0.034833163 -0.0029856996 -0.004976166 -0.02488083 -0.02786653 0.10947565 -0.038814094 0.028861763
0.013933265 -0.030852228 0.052747358 0.060709223 -0.019904664 0.08160912 0.026871296 0.047771193
0.017914198 -0.01890943 0.089570984 -0.05374259 0.06269969 0.026871296 -0.028861763 0.09156145
00000000: d6d6 3d1b d0df 55f7 f441 5d10 2120 6467
00000010: 4229 381e 45cc 32eb e454 0ec7 5d11 63f0
00000020: 55e4 5a23 d8d2 240d 18df cadf dc37 714e
00000030: 140b 584b 2bf0 2955 fc10 3a14 fc69 f30f
00000040: 56c7 6057 2f06 0a4b 3533 f33f e7dc 6e31
00000050: 2bfa 062b 0ff4 4705 560c 0514 db0f 501b
00000060: 354f 3df5 cdc3 f647 22d6 ca1c 3952 473e
00000070: 0b5a d657 0741 07f3 30e8 d52c e123 f652
00000080: 4b4c 0a19 0408 19c9 123f ffe0 3c08 6be8
00000090: 20ee 152f f8e7 51fa 0b45 002a 23f1 f444
000000a0: 3e34 2ce1 17ee 25e7 d545 ca1b dc2a 1a08
000000b0: f557 e00c 0e50 4940 fde7 1c06 545c 3603
000000c0: 0531 ee37 f440 56dd 3e4c 34c7 ee3a 4426
000000d0: 6d53 2154 32ff 593f e863 34ff 0a2c 6635
000000e0: e147 25e4 55d0 5525 ddfd fbe7 e46e d91d
000000f0: 0ee1 353d ec52 1b30 12ed 5aca 3f1b e35c

tfl.pseudo_qconst3 i1 [64, 1, 1, 64]
-2 44 -62 8 125 -38 -64 99
-9 -20 -3 -77 -35 32 -50 -67
-80 -109 -117 -34 -97 -99 100 61
-47 -69 -113 44 22 -74 72 -63
-101 36 72 -21 -2 108 -57 87
-46 -80 -42 -52 48 -3 -95 -39
5 -127 -89 105 72 -45 31 38
-23 -108 11 10 22 16 -104 54
6 23 -66 -93 13 -77 -67 19
97 50 -71 18 36 123 -91 76
-113 -111 -86 97 127 24 -86 18
-49 -120 -67 101 -52 -28 54 14
5 -84 -47 -66 127 -68 -93 34
35 -63 18 57 -75 95 90 -101
-76 -98 112 -6 62 37 -24 -21
22 1 -60 103 -51 -14 21 -27
71 -104 27 66 82 -56 -66 -50
47 16 42 17 -48 -16 3 77
54 49 -40 -44 -7 55 -48 63
58 -56 114 -29 -1 65 127 60
-42 -101 79 -52 -64 -74 98 20
23 0 -65 53 28 36 -103 -50
52 -38 -55 -2 40 77 -90 11
-65 -7 -45 98 33 91 10 -101
-29 1 3 32 -107 111 -56 -7
-127 34 91 -42 31 -60 -109 -47
-66 88 -22 12 19 -45 -95 84
5 -72 110 53 -108 3 29 -6
-4 -28 -120 23 10 103 4 115
-57 39 110 -10 34 69 -7 -30
-14 -75 44 124 118 -7 17 -95
-46 109 88 116 -91 54 5 5
00000000: fe2c c208 7dda c063 f7ec fdb3 dd20 cebd
00000010: b093 8bde 9f9d 643d d1bb 8f2c 16b6 48c1
00000020: 9b24 48eb fe6c c757 d2b0 d6cc 30fd a1d9
00000030: 0581 a769 48d3 1f26 e994 0b0a 1610 9836
00000040: 0617 bea3 0db3 bd13 6132 b912 247b a54c
00000050: 8f91 aa61 7f18 aa12 cf88 bd65 cce4 360e
00000060: 05ac d1be 7fbc a322 23c1 1239 b55f 5a9b
00000070: b49e 70fa 3e25 e8eb 1601 c467 cdf2 15e5
00000080: 4798 1b42 52c8 bece 2f10 2a11 d0f0 034d
00000090: 3631 d8d4 f937 d03f 3ac8 72e3 ff41 7f3c
000000a0: d69b 4fcc c0b6 6214 1700 bf35 1c24 99ce
000000b0: 34da c9fe 284d a60b bff9 d362 215b 0a9b
000000c0: e301 0320 956f c8f9 8122 5bd6 1fc4 93d1
000000d0: be58 ea0c 13d3 a154 05b8 6e35 9403 1dfa
000000e0: fce4 8817 0a67 0473 c727 6ef6 2245 f9e2
000000f0: f2b5 2c7c 76f9 11a1 d26d 5874 a536 0505

tfl.pseudo_qconst5 i1 [1, 23, 1, 64]
17 88 23 82 -72 -41 41 16
2 -44 106 86 38 16 12 90
20 21 104 -63 25 -82 43 7
-18 42 77 -102 -3 47 36 82
-39 -93 -55 69 -22 55 -44 90
108 -122 107 50 53 61 104 83
-59 20 127 95 -5 -127 11 -91
68 -127 -42 65 57 -19 58 80
51 -52 -44 113 -127 -93 -55 -81
88 -114 53 -1 19 -84 -33 -66
-105 85 9 86 74 127 20 -81
40 54 82 39 127 -11 -53 12
59 -55 -92 -99 1 -127 24 -69
52 -36 -75 -47 41 105 -89 10
-88 -48 22 -68 -45 -40 87 -55
88 -18 -98 118 91 39 -96 -79
102 29 18 78 -89 21 108 22
54 -113 -88 127 -12 99 -19 -110
74 22 34 6 -7 105 116 82
18 -47 65 29 17 -45 70 -93
-53 -14 95 41 45 -44 74 11
39 -55 -74 -127 22 -72 115 -18
60 -8 42 120 -49 -36 22 -31
37 5 -79 56 8 45 -90 89
127 79 -77 109 -96 35 -44 44
-67 -127 23 26 53 112 -108 -61
-17 -24 69 -67 127 -35 26 102
-49 6 118 2 -32 86 -77 30
17 106 70 -46 -49 28 98 127
60 -101 -111 -41 41 -58 99 -43
25 -104 62 103 -50 62 -76 -45
8 11 81 -98 -10 52 -46 38
00000000: 1158 1752 b8d7 2910 02d4 6a56 2610 0c5a
00000010: 1415 68c1 19ae 2b07 ee2a 4d9a fd2f 2452
00000020: d9a3 c945 ea37 d45a 6c86 6b32 353d 6853
00000030: c514 7f5f fb81 0ba5 4481 d641 39ed 3a50
00000040: 33cc d471 81a3 c9af 588e 35ff 13ac dfbe
00000050: 9755 0956 4a7f 14af 2836 5227 7ff5 cb0c
00000060: 3bc9 a49d 0181 18bb 34dc b5d1 2969 a70a
00000070: a8d0 16bc d3d8 57c9 58ee 9e76 5b27 a0b1
00000080: 661d 124e a715 6c16 368f a87f f463 ed92
00000090: 4a16 2206 f969 7452 12d1 411d 11d3 46a3
000000a0: cbf2 5f29 2dd4 4a0b 27c9 b681 16b8 73ee
000000b0: 3cf8 2a78 cfdc 16e1 2505 b138 082d a659
000000c0: 7f4f b36d a023 d42c bd81 171a 3570 94c3
000000d0: efe8 45bd 7fdd 1a66 cf06 7602 e056 b31e
000000e0: 116a 46d2 cf1c 627f 3c9b 91d7 29c6 63d5
000000f0: 1998 3e67 ce3e b4d3 080b 519e f634 d226

tfl.pseudo_qconst7 i1 [64, 1, 1, 64]
28 -84 -40 72 -103 -11 -76 -42
101 83 94 -94 74 110 -103 40
89 -21 -16 -69 -37 65 -40 87
-83 103 -39 -87 57 51 -15 26
-30 13 48 17 -72 17 34 49
127 61 -76 67 38 -4 -96 111
18 93 53 -41 84 -84 106 24
86 119 58 -60 -106 -101 27 -42
-67 -127 -16 -88 49 -46 39 -61
-29 24 -115 87 57 101 -56 85
102 -77 -72 87 116 58 42 -86
62 121 1 -51 123 116 100 -22
19 52 -118 83 25 20 -106 50
-48 -31 -23 -31 -47 -90 1 100
42 -93 87 -27 -94 -29 -108 122
125 -120 -36 49 9 22 76 21
-94 -42 -126 47 -123 -56 -79 -64
-126 126 -68 113 113 -61 36 -87
47 -67 125 95 -11 -39 76 -91
100 59 8 -91 -104 -86 107 67
45 -61 -91 -72 -5 27 14 2
29 -127 10 77 -113 23 -95 -76
84 52 84 -92 -74 -97 -86 54
-73 -5 -77 -26 18 -33 -41 -100
-73 -109 -16 27 -78 7 -35 -49
-37 -101 -111 104 -69 1 54 19
109 -64 90 -92 -23 0 88 71
3 -84 1 -41 -75 -56 21 113
28 -5 -99 -30 -49 14 54 -93
-9 127 -48 105 37 24 -115 32
-94 -99 12 -94 -60 -73 103 -23
-92 25 118 -86 87 -105 48 -5
00000000: 1cac d848 99f5 b4d6 6553 5ea2 4a6e 9928
00000010: 59eb f0bb db41 d857 ad67 d9a9 3933 f11a
00000020: e20d 3011 b811 2231 7f3d b443 26fc a06f
00000030: 125d 35d7 54ac 6a18 5677 3ac4 969b 1bd6
00000040: bd81 f0a8 31d2 27c3 e318 8d57 3965 c855
00000050: 66b3 b857 743a 2aaa 3e79 01cd 7b74 64ea
00000060: 1334 8a53 1914 9632 d0e1 e9e1 d1a6 0164
00000070: 2aa3 57e5 a2e3 947a 7d88 dc31 0916 4c15
00000080: a2d6 822f 85c8 b1c0 827e bc71 71c3 24a9
00000090: 2fbd 7d5f f5d9 4ca5 643b 08a5 98aa 6b43
000000a0: 2dc3 a5b8 fb1b 0e02 1d81 0a4d 8f17 a1b4
000000b0: 5434 54a4 b69f aa36 b7fb b3e6 12df d79c
000000c0: b793 f01b b207 ddcf db9b 9168 bb01 3613
000000d0: 6dc0 5aa4 e900 5847 03ac 01d7 b5c8 1571
000000e0: 1cfb 9de2 cf0e 36a3 f77f d069 2518 8d20
000000f0: a29d 0ca2 c4b7 67e9 a419 76aa 5797 30fb

tfl.pseudo_qconst9 i1 [1, 15, 1, 32]
-126 20 -120 -28 41 116 -2 61
-32 70 56 85 115 -42 -109 -112
17 100 62 -66 -23 69 -83 66
-127 26 77 -58 -92 70 -29 85
-48 80 -30 77 91 66 63 54
-4 -43 -79 -37 -121 -16 -80 -65
-106 12 -56 -50 -89 81 99 -115
-78 -49 2 -26 -24 110 108 89
-80 -61 -127 59 -75 -83 -24 19
93 -122 106 -102 9 106 -70 -34
77 -40 -69 -78 92 51 53 105
98 72 -127 -44 99 -37 -39 31
35 -84 -41 -15 42 -58 -45 1
-23 35 -79 -104 87 -116 -17 -127
-93 -82 -97 9 -35 -43 -55 -102
43 21 3 41 70 -40 57 78
62 127 57 -5 95 -75 13 106
41 26 49 -59 -82 -56 -8 89
66 77 -34 -127 -13 -98 7 5
-19 -115 13 -113 -99 -53 -127 107
-81 109 -78 54 -36 117 43 32
103 -33 65 78 -85 13 104 -75
-110 76 -127 30 48 -127 13 -108
70 60 41 28 101 125 -110 103
-127 -42 -7 61 51 50 -127 109
-32 -77 -56 -20 -55 -97 -105 -25
-61 108 14 -105 -67 -80 -127 63
-47 56 -5 84 -30 -25 -100 76
22 33 -109 98 -101 -60 85 -39
-93 -113 -88 127 37 29 -36 -27
18 -31 -27 35 61 -97 52 123
-32 93 35 34 -39 127 29 -53
00000000: 8214 88e4 2974 fe3d e046 3855 73d6 9390
00000010: 1164 3ebe e945 ad42 811a 4dc6 a446 e355
00000020: d050 e24d 5b42 3f36 fcd5 b1db 87f0 b0bf
00000030: 960c c8ce a751 638d b2cf 02e6 e86e 6c59
00000040: b0c3 813b b5ad e813 5d86 6a9a 096a bade
00000050: 4dd8 bbb2 5c33 3569 6248 81d4 63db d91f
00000060: 23ac d7f1 2ac6 d301 e923 b198 578c ef81
00000070: a3ae 9f09 ddd5 c99a 2b15 0329 46d8 394e
00000080: 3e7f 39fb 5fb5 0d6a 291a 31c5 aec8 f859
00000090: 424d de81 f39e 0705 ed8d 0d8f 9dcb 816b
000000a0: af6d b236 dc75 2b20 67df 414e ab0d 68b5
000000b0: 924c 811e 3081 0d94 463c 291c 657d 9267
000000c0: 81d6 f93d 3332 816d e0b3 c8ec c99f 97e7
000000d0: c36c 0e97 bdb0 813f d138 fb54 e2e7 9c4c
000000e0: 1621 9362 9bc4 55d9 a38f a87f 251d dce5
000000f0: 12e1 e523 3d9f 347b e05d 2322 d97f 1dcb

tfl.pseudo_qconst11 i1 [1, 9, 1, 32]
-37 29 -89 43 64 82 50 90
-64 119 83 -36 -7 -88 35 47
-127 24 112 90 -119 -63 99 -48
61 -27 69 42 -17 -4 63 -48
-13 127 34 -38 -34 -2 -87 83
-127 17 49 -119 24 4 -3 56
-48 -18 64 -14 122 27 119 127
14 -42 -46 -69 43 102 105 -49
-91 -9 -51 29 12 73 -100 61
-45 -113 56 38 81 8 66 111
61 -127 -108 72 4 -31 127 -93
110 49 99 -58 -90 96 59 -82
127 45 54 -127 -70 -83 18 -112
-112 127 -56 127 98 -24 23 101
20 -71 -86 127 120 -85 -59 88
36 3 109 -24 -21 44 44 -127
-7 -114 -66 56 85 105 -19 127
31 -124 14 80 99 28 119 -47
71 -67 11 23 13 -94 -25 71
72 127 -127 -55 -31 -127 127 -100
-91 -71 90 -9 -46 -31 124 -10
21 58 -72 -58 -127 -101 12 127
-18 80 -33 59 -52 15 -63 20
92 -52 106 118 127 -47 118 -116
12 -30 33 26 38 78 127 77
125 119 124 -52 -61 -30 -127 -23
99 117 0 52 127 54 52 82
-127 -82 -99 -37 -6 54 41 69
-69 -9 -127 111 -127 127 -112 -110
-19 17 127 90 70 127 -94 126
9 -116 -127 70 15 81 -98 83
37 101 12 -125 115 0 63 81
00000000: db1d a72b 4052 325a c077 53dc f9a8 232f
00000010: 8118 705a 89c1 63d0 3de5 452a effc 3fd0
00000020: f37f 22da defe a953 8111 3189 1804 fd38
00000030: d0ee 40f2 7a1b 777f 0ed6 d2bb 2b66 69cf
00000040: a5f7 cd1d 0c49 9c3d d38f 3826 5108 426f
00000050: 3d81 9448 04e1 7fa3 6e31 63c6 a660 3bae
00000060: 7f2d 3681 baad 1290 907f c87f 62e8 1765
00000070: 14b9 aa7f 78ab c558 2403 6de8 eb2c 2c81
00000080: f98e be38 5569 ed7f 1f84 0e50 631c 77d1
00000090: 47bd 0b17 0da2 e747 487f 81c9 e181 7f9c
000000a0: a5b9 5af7 d2e1 7cf6 153a b8c6 819b 0c7f
000000b0: ee50 df3b cc0f c114 5ccc 6a76 7fd1 768c
000000c0: 0ce2 211a 264e 7f4d 7d77 7ccc c3e2 81e9
000000d0: 6375 0034 7f36 3452 81ae 9ddb fa36 2945
000000e0: bbf7 816f 817f 9092 ed11 7f5a 467f a27e
000000f0: 098c 8146 0f51 9e53 2565 0c83 7300 3f51

tfl.pseudo_qconst13 i1 [64, 1, 1, 64]
34 -31 -32 56 -117 103 58 -101
-16 14 -91 51 -37 -9 66 -127
-59 102 96 11 -6 -95 -24 62
-59 -117 37 110 66 -94 -100 -74
78 89 -74 -113 21 112 -64 85
49 13 -33 59 38 -59 19 35
104 62 -52 -122 -101 73 -123 -74
-37 -93 -113 61 19 8 69 -32
121 40 77 79 -55 99 57 -35
-33 -52 47 -78 92 108 113 -57
-47 22 39 -68 -2 -35 85 -13
-53 -76 -76 -12 -53 -102 36 37
52 -86 -20 39 -102 -82 58 42
119 102 -30 -35 -52 -103 -81 41
5 -107 -97 41 -127 53 -32 -19
-57 -57 36 -2 -44 -6 82 -50
42 -23 107 -57 97 -32 -80 -17
-54 -55 -51 122 91 -76 17 88
112 44 -20 106 -9 109 46 81
-127 89 -18 84 -23 -71 -89 -76
-109 37 3 22 49 6 35 -31
-52 -95 47 -22 61 -74 -121 68
-17 19 35 -31 8 -62 93 -27
-76 18 -3 35 109 67 -101 80
33 -2 25 -30 41 116 17 34
127 -28 94 119 -28 -34 14 15
-75 -30 26 -94 -105 42 -69 -81
59 105 -15 -49 43 46 -117 56
91 3 -6 81 -24 -109 82 117
44 57 -78 36 29 -28 2 101
-99 -56 -43 -80 8 106 -112 88
98 -46 -89 -87 -112 44 -89 37
00000000: 22e1 e038 8b67 3a9b f00e a533 dbf7 4281
00000010: c566 600b faa1 e83e c58b 256e 42a2 9cb6
00000020: 4e59 b68f 1570 c055 310d df3b 26c5 1323
00000030: 683e cc86 9b49 85b6 dba3 8f3d 1308 45e0
00000040: 7928 4d4f c963 39dd dfcc 2fb2 5c6c 71c7
00000050: d116 27bc fedd 55f3 cbb4 b4f4 cb9a 2425
00000060: 34aa ec27 9aae 3a2a 7766 e2dd cc99 af29
00000070: 0595 9f29 8135 e0ed c7c7 24fe d4fa 52ce
00000080: 2ae9 6bc7 61e0 b0ef cac9 cd7a 5bb4 1158
00000090: 702c ec6a f76d 2e51 8159 ee54 e9b9 a7b4
000000a0: 9325 0316 3106 23e1 cca1 2fea 3db6 8744
000000b0: ef13 23e1 08c2 5de5 b412 fd23 6d43 9b50
000000c0: 21fe 19e2 2974 1122 7fe4 5e77 e4de 0e0f
000000d0: b5e2 1aa2 972a bbaf 3b69 f1cf 2b2e 8b38
000000e0: 5b03 fa51 e893 5275 2c39 b224 1de4 0265
000000f0: 9dc8 d5b0 086a 9058 62d2 a7a9 902c a725

tfl.pseudo_qconst15 i1 [1, 11, 1, 32]
34 17 31 67 117 102 59 -43
51 120 -83 6 10 69 21 -68
3 -90 21 89 78 -127 -126 -7
79 -89 -12 -127 64 50 94 98
-102 6 -127 -86 56 -91 83 -103
109 127 34 38 50 -92 -68 -66
10 94 -10 -44 -3 81 14 30
-39 -118 40 -52 -28 92 78 -74
78 107 112 116 -12 127 113 -36
-64 -113 127 -34 -104 -95 -45 75
-8 -94 9 87 -59 123 116 -33
65 -67 103 101 -127 -81 -6 -14
96 67 -19 42 36 45 29 -35
-19 -43 -16 18 10 17 -43 69
-78 29 -127 -34 -56 -111 119 -29
89 83 -119 6 88 64 -92 45
-35 18 73 67 -11 -81 47 2
-31 13 -3 -63 18 -26 -108 95
27 28 -116 108 -127 -112 127 21
-51 46 -44 -99 -35 -59 -127 127
-4 28 -127 -48 127 97 67 -112
99 90 94 102 -21 65 68 -114
124 125 85 78 -75 -59 1 76
-62 18 -14 117 61 -58 47 -49
77 -127 -65 6 88 -68 -69 61
-127 83 38 -123 61 93 -125 127
108 -104 33 68 38 11 47 127
83 127 -102 -7 43 -50 35 -19
-127 -17 -64 127 92 46 127 20
-23 120 19 67 85 122 -1 -104
127 33 99 -95 -34 22 -85 82
-98 5 -127 125 -22 52 87 -15
00000000: 2211 1f43 7566 3bd5 3378 ad06 0a45 15bc
00000010: 03a6 1559 4e81 82f9 4fa7 f481 4032 5e62
00000020: 9a06 81aa 38a5 5399 6d7f 2226 32a4 bcbe
00000030: 0a5e f6d4 fd51 0e1e d98a 28cc e45c 4eb6
00000040: 4e6b 7074 f47f 71dc c08f 7fde 98a1 d34b
00000050: f8a2 0957 c57b 74df 41bd 6765 81af faf2
00000060: 6043 ed2a 242d 1ddd edd5 f012 0a11 d545
00000070: b21d 81de c891 77e3 5953 8906 5840 a42d
00000080: dd12 4943 f5af 2f02 e10d fdc1 12e6 945f
00000090: 1b1c 8c6c 8190 7f15 cd2e d49d ddc5 817f
000000a0: fc1c 81d0 7f61 4390 635a 5e66 eb41 448e
000000b0: 7c7d 554e b5c5 014c c212 f275 3dc6 2fcf
000000c0: 4d81 bf06 58bc bb3d 8153 2685 3d5d 837f
000000d0: 6c98 2144 260b 2f7f 537f 9af9 2bce 23ed
000000e0: 81ef c07f 5c2e 7f14 e978 1343 557a ff98
000000f0: 7f21 63a1 de16 ab52 9e05 817d ea34 57f1

tfl.pseudo_qconst17 i1 [1, 7, 1, 32]
32 -103 -21 20 121 -41 58 -24
-37 -127 -2 19 40 27 49 -19
-7 -20 127 64 59 82 86 -89
127 -108 -7 -112 -104 -32 -22 -117
-111 75 -76 91 127 -127 120 -50
-1 50 54 54 35 64 -127 -68
58 -95 -70 -17 55 125 31 -31
-5 104 -23 103 -54 94 122 -88
72 -119 41 -16 -106 -22 -79 84
110 56 127 -127 127 96 -54 -69
-127 104 -116 26 127 127 96 7
79 32 -127 45 -127 81 34 84
-127 -22 127 2 15 -93 -120 127
-127 -112 107 -85 24 127 0 29
-25 0 105 -127 97 65 9 66
-112 -12 -14 -8 66 2 -73 -15
-5 -127 4 -84 127 -118 12 74
-8 -92 -28 80 -96 -77 -100 -127
109 103 -4 -87 49 -28 -35 102
120 27 115 127 -42 -7 2 18
-63 115 74 -105 98 -89 127 114
89 37 72 -77 -60 -43 34 50
59 -92 4 -29 -126 -62 127 -127
-55 -127 19 0 31 27 9 93
73 -14 -55 -127 17 90 121 126
-49 120 0 -93 96 -25 41 -119
-81 127 -16 -25 -49 51 95 -80
99 -49 -84 57 -4 127 -127 127
00000000: 2099 eb14 79d7 3ae8 db81 fe13 281b 31ed
00000010: f9ec 7f40 3b52 56a7 7f94 f990 98e0 ea8b
00000020: 914b b45b 7f81 78ce ff32 3636 2340 81bc
00000030: 3aa1 baef 377d 1fe1 fb68 e967 ca5e 7aa8
00000040: 4889 29f0 96ea b154 6e38 7f81 7f60 cabb
00000050: 8168 8c1a 7f7f 6007 4f20 812d 8151 2254
00000060: 81ea 7f02 0fa3 887f 8190 6bab 187f 001d
00000070: e700 6981 6141 0942 90f4 f2f8 4202 b7f1
00000080: fb81 04ac 7f8a 0c4a f8a4 e450 a0b3 9c81
00000090: 6d67 fca9 31e4 dd66 781b 737f d6f9 0212
000000a0: c173 4a97 62a7 7f72 5925 48b3 c4d5 2232
000000b0: 3ba4 04e3 82c2 7f81 c981 1300 1f1b 095d
000000c0: 49f2 c981 115a 797e cf78 00a3 60e7 2989
000000d0: af7f f0e7 cf33 5fb0 63cf ac39 fc7f 817f

tfl.pseudo_qconst19 i1 [64, 1, 1, 32]
2 122 -51 -55 35 57 -63 40
-66 -79 -118 13 -124 -123 127 124
-38 -36 97 -24 -25 -92 118 -4
-48 36 -95 86 -127 -10 43 58
-20 47 -87 61 -18 19 -94 -37
-112 -73 105 -115 114 14 -93 58
-47 98 49 -58 26 -125 127 -124
55 -20 -89 67 -20 23 -50 -115
-51 72 101 -68 64 91 -61 86
-102 110 40 -97 101 -127 -118 -87
-111 -47 -5 107 84 93 -116 40
-2 -21 109 -119 -78 111 38 26
48 -37 -119 -1 22 76 121 24
15 -53 16 -22 68 -21 -121 63
37 -43 19 -89 -19 -38 83 -127
-26 -111 104 -63 116 91 -102 7
60 88 -127 39 42 -37 -6 39
40 96 15 88 -87 6 106 -67
-52 32 10 -2 0 89 83 42
110 81 97 -19 -88 -80 -103 120
98 19 51 107 81 -22 26 -1
82 7 -28 -71 -126 -77 102 -103
55 -26 95 -114 31 36 -48 106
80 -88 46 68 108 127 -10 104
52 47 -2 108 39 -20 30 17
-124 86 -31 67 -34 -53 -24 -127
93 102 35 -87 38 -106 -15 17
-94 -85 98 -93 83 120 49 -88
40 -4 31 81 -21 -102 127 -80
48 27 -86 55 -94 -73 47 -45
13 -81 10 -99 -110 113 -6 20
30 13 -4 12 61 -31 114 -8
00000000: 027a cdc9 2339 c128 beb1 8a0d 8485 7f7c
00000010: dadc 61e8 e7a4 76fc d024 a156 81f6 2b3a
00000020: ec2f a93d ee13 a2db 90b7 698d 720e a33a
00000030: d162 31c6 1a83 7f84 37ec a743 ec17 ce8d
00000040: cd48 65bc 405b c356 9a6e 289f 6581 8aa9
00000050: 91d1 fb6b 545d 8c28 feeb 6d89 b26f 261a
00000060: 30db 89ff 164c 7918 0fcb 10ea 44eb 873f
00000070: 25d5 13a7 edda 5381 e691 68c1 745b 9a07
00000080: 3c58 8127 2adb fa27 2860 0f58 a906 6abd
00000090: cc20 0afe 0059 532a 6e51 61ed a8b0 9978
000000a0: 6213 336b 51ea 1aff 5207 e4b9 82b3 6699
000000b0: 37e6 5f8e 1f24 d06a 50a8 2e44 6c7f f668
000000c0: 342f fe6c 27ec 1e11 8456 e143 decb e881
000000d0: 5d66 23a9 2696 f111 a2ab 62a3 5378 31a8
000000e0: 28fc 1f51 eb9a 7fb0 301b aa37 a2b7 2fd3
000000f0: 0daf 0a9d 9271 fa14 1e0d fc0c 3de1 72f8

tfl.pseudo_qconst21 i1 [1, 5, 1, 32]
23 127 127 -127 -127 47 68 50
37 127 -93 127 -51 -91 127 127
120 -6 93 109 33 -109 127 -127
-127 -77 55 117 -89 -53 123 -127
-52 48 -116 26 55 -26 29 127
127 85 -95 -18 20 -8 26 17
-7 72 94 -45 -18 -34 84 38
-100 -28 -91 -59 -67 17 121 -65
-127 50 58 -6 -79 -97 -104 -23
66 -11 -127 32 -67 127 -69 63
-44 63 70 116 -13 -64 29 81
-56 -97 -84 125 -127 -120 112 7
46 57 11 15 38 -127 127 87
-88 -83 -76 97 -127 -54 43 -52
127 127 -17 127 17 127 47 -20
-9 60 -127 10 -65 -119 127 127
20 -108 2 116 16 -111 -96 -10
-44 -81 -90 -31 -73 104 -21 -122
125 12 127 44 127 -45 39 45
29 -127 -25 127 -38 127 49 -124
00000000: 177f 7f81 812f 4432 257f a37f cda5 7f7f
00000010: 78fa 5d6d 2193 7f81 81b3 3775 a7cb 7b81
00000020: cc30 8c1a 37e6 1d7f 7f55 a1ee 14f8 1a11
00000030: f948 5ed3 eede 5426 9ce4 a5c5 bd11 79bf
00000040: 8132 3afa b19f 98e9 42f5 8120 bd7f bb3f
00000050: d43f 4674 f3c0 1d51 c89f ac7d 8188 7007
00000060: 2e39 0b0f 2681 7f57 a8ad b461 81ca 2bcc
00000070: 7f7f ef7f 117f 2fec f73c 810a bf89 7f7f
00000080: 1494 0274 1091 a0f6 d4af a6e1 b768 eb86
00000090: 7d0c 7f2c 7fd3 272d 1d81 e77f da7f 3184

tfl.pseudo_qconst23 i1 [32, 5, 1, 40]
17 96 -13 33 -46 -28 48 -8
-104 0 -107 -50 92 -60 -22 57
105 -18 61 101 73 -2 107 111
45 -69 118 -87 49 35 42 95
124 118 -12 62 -61 -77 -70 -68
34 -18 -72 63 26 -108 8 8
-27 -101 -70 41 -58 76 -73 -66
24 -22 70 -46 -115 40 33 33
25 68 -84 118 7 111 80 -92
-123 -99 55 -99 83 -117 -8 100
58 50 10 -116 74 12 63 -28
-108 6 76 76 80 85 28 61
12 97 8 -11 -6 69 11 60
53 71 16 -127 13 -67 -11 64
1 110 -40 37 -12 74 35 90
38 -36 14 -15 -92 -107 117 -120
127 -95 -22 -45 -80 93 81 2
122 -97 -28 101 -68 -118 84 66
44 92 42 -43 -41 -83 -29 -76
-74 101 19 -77 -3 -105 -24 32
-90 96 13 -9 -35 -25 -102 8
16 119 -79 78 -84 -11 -45 -89
104 53 0 40 124 96 -26 -48
-70 1 106 16 61 -99 -48 -97
52 -92 79 -58 -116 -18 53 66
14 33 88 41 71 115 -29 39
113 31 87 58 39 -52 -83 -74
-6 -53 37 79 -43 91 -35 -88
-104 29 -58 -3 -10 81 29 68
25 -71 43 -61 -87 54 -5 86
20 -5 29 27 -103 26 76 41
-30 -46 13 30 101 55 -69 -87
00000000: 1160 f321 d2e4 30f8 9800 95ce 5cc4 ea39
00000010: 69ee 3d65 49fe 6b6f 2dbb 76a9 3123 2a5f
00000020: 7c76 f43e c3b3 babc 22ee b83f 1a94 0808
00000030: e59b ba29 c64c b7be 18ea 46d2 8d28 2121
00000040: 1944 ac76 076f 50a4 859d 379d 538b f864
00000050: 3a32 0a8c 4a0c 3fe4 9406 4c4c 5055 1c3d
00000060: 0c61 08f5 fa45 0b3c 3547 1081 0dbd f540
00000070: 016e d825 f44a 235a 26dc 0ef1 a495 7588
00000080: 7fa1 ead3 b05d 5102 7a9f e465 bc8a 5442
00000090: 2c5c 2ad5 d7ad e3b4 b665 13b3 fd97 e820
000000a0: a660 0df7 dde7 9a08 1077 b14e acf5 d3a7
000000b0: 6835 0028 7c60 e6d0 ba01 6a10 3d9d d09f
000000c0: 34a4 4fc6 8cee 3542 0e21 5829 4773 e327
000000d0: 711f 573a 27cc adb6 facb 254f d55b dda8
000000e0: 981d c6fd f651 1d44 19b9 2bc3 a936 fb56
000000f0: 14fb 1d1b 991a 4c29 e2d2 0d1e 6537 bba9

tfl.pseudo_qconst24 i1 [1, 22, 1, 64] scale=0.020842029 zero_point=-128
0.0 0.0 0.0 0.0 0.0 0.0 0.0 0.0
0.0 0.0 0.0 0.0 0.0 0.0 0.0 0.0
0.0 0.0 0.0 0.0 0.0 0.0 0.0 0.0
0.0 0.0 0.0 0.0 0.0 0.0 0.0 0.0
0.0 0.0 0.0 0.0 0.0 0.0 0.0 0.0
0.0 0.0 0.0 0.0 0.0 0.0 0.0 0.0
0.0 0.0 0.0 0.0 0.0 0.0 0.0 0.0
0.0 0.0 0.0 0.0 0.0 0.0 0.0 0.0
0.0 0.0 0.0 0.0 0.0 0.0 0.0 0.0
0.0 0.0 0.0 0.0 0.0 0.0 0.0 0.0
0.0 0.0 0.0 0.0 0.0 0.0 0.0 0.0
0.0 0.0 0.0 0.0 0.0 0.0 0.0 0.0
0.0 0.0 0.0 0.0 0.0 0.0 0.0 0.0
0.0 0.0 0.0 0.0 0.0 0.0 0.0 0.0
0.0 0.0 0.0 0.0 0.0 0.0 0.0 0.0
0.0 0.0 0.0 0.0 0.0 0.0 0.0 0.0
0.0 0.0 0.0 0.0 0.0 0.0 0.0 0.0
0.0 0.0 0.0 0.0 0.0 0.0 0.0 0.0
0.0 0.0 0.0 0.0 0.0 0.0 0.0 0.0
0.0 0.0 0.0 0.0 0.0 0.0 0.0 0.0
0.0 0.0 0.0 0.0 0.0 0.0 0.0 0.0
0.0 0.0 0.0 0.0 0.0 0.0 0.0 0.0
0.0 0.0 0.0 0.0 0.0 0.0 0.0 0.0
0.0 0.0 0.0 0.0 0.0 0.0 0.0 0.0
0.0 0.0 0.0 0.0 0.0 0.0 0.0 0.0
0.0 0.0 0.0 0.0 0.0 0.0 0.0 0.0
0.0 0.0 0.0 0.0 0.0 0.0 0.0 0.0
0.0 0.0 0.0 0.0 0.0 0.0 0.0 0.0
0.0 0.0 0.0 0.0 0.0 0.0 0.0 0.0
0.0 0.0 0.0 0.0 0.0 0.0 0.0 0.0
0.0 0.0 0.0 0.0 0.0 0.0 0.0 0.0
0.0 0.0 0.0 0.0 0.0 0.0 0.0 0.0
00000000: 8080 8080 8080 8080 8080 8080 8080 8080
00000010: 8080 8080 8080 8080 8080 8080 8080 8080
00000020: 8080 8080 8080 8080 8080 8080 8080 8080
00000030: 8080 8080 8080 8080 8080 8080 8080 8080
00000040: 8080 8080 8080 8080 8080 8080 8080 8080
00000050: 8080 8080 8080 8080 8080 8080 8080 8080
00000060: 8080 8080 8080 8080 8080 8080 8080 8080
00000070: 8080 8080 8080 8080 8080 8080 8080 8080
00000080: 8080 8080 8080 8080 8080 8080 8080 8080
00000090: 8080 8080 8080 8080 8080 8080 8080 8080
000000a0: 8080 8080 8080 8080 8080 8080 8080 8080
000000b0: 8080 8080 8080 8080 8080 8080 8080 8080
000000c0: 8080 8080 8080 8080 8080 8080 8080 8080
000000d0: 8080 8080 8080 8080 8080 8080 8080 8080
000000e0: 8080 8080 8080 8080 8080 8080 8080 8080
000000f0: 8080 8080 8080 8080 8080 8080 8080 8080

tfl.pseudo_qconst25 i1 [1, 16, 1, 64] scale=0.025165651 zero_point=-128
0.0 0.0 0.0 0.0 0.0 0.0 0.0 0.0
0.0 0.0 0.0 0.0 0.0 0.0 0.0 0.0
0.0 0.0 0.0 0.0 0.0 0.0 0.0 0.0
0.0 0.0 0.0 0.0 0.0 0.0 0.0 0.0
0.0 0.0 0.0 0.0 0.0 0.0 0.0 0.0
0.0 0.0 0.0 0.0 0.0 0.0 0.0 0.0
0.0 0.0 0.0 0.0 0.0 0.0 0.0 0.0
0.0 0.0 0.0 0.0 0.0 0.0 0.0 0.0
0.0 0.0 0.0 0.0 0.0 0.0 0.0 0.0
0.0 0.0 0.0 0.0 0.0 0.0 0.0 0.0
0.0 0.0 0.0 0.0 0.0 0.0 0.0 0.0
0.0 0.0 0.0 0.0 0.0 0.0 0.0 0.0
0.0 0.0 0.0 0.0 0.0 0.0 0.0 0.0
0.0 0.0 0.0 0.0 0.0 0.0 0.0 0.0
0.0 0.0 0.0 0.0 0.0 0.0 0.0 0.0
0.0 0.0 0.0 0.0 0.0 0.0 0.0 0.0
0.0 0.0 0.0 0.0 0.0 0.0 0.0 0.0
0.0 0.0 0.0 0.0 0.0 0.0 0.0 0.0
0.0 0.0 0.0 0.0 0.0 0.0 0.0 0.0
0.0 0.0 0.0 0.0 0.0 0.0 0.0 0.0
0.0 0.0 0.0 0.0 0.0 0.0 0.0 0.0
0.0 0.0 0.0 0.0 0.0 0.0 0.0 0.0
0.0 0.0 0.0 0.0 0.0 0.0 0.0 0.0
0.0 0.0 0.0 0.0 0.0 0.0 0.0 0.0
0.0 0.0 0.0 0.0 0.0 0.0 0.0 0.0
0.0 0.0 0.0 0.0 0.0 0.0 0.0 0.0
0.0 0.0 0.0 0.0 0.0 0.0 0.0 0.0
0.0 0.0 0.0 0.0 0.0 0.0 0.0 0.0
0.0 0.0 0.0 0.0 0.0 0.0 0.0 0.0
0.0 0.0 0.0 0.0 0.0 0.0 0.0 0.0
0.0 0.0 0.0 0.0 0.0 0.0 0.0 0.0
0.0 0.0 0.0 0.0 0.0 0.0 0.0 0.0
00000000: 8080 8080 8080 8080 8080 8080 8080 8080
00000010: 8080 8080 8080 8080 8080 8080 8080 8080
00000020: 8080 8080 8080 8080 8080 8080 8080 8080
00000030: 8080 8080 8080 8080 8080 8080 8080 8080
00000040: 8080 8080 8080 8080 8080 8080 8080 8080
00000050: 8080 8080 8080 8080 8080 8080 8080 8080
00000060: 8080 8080 8080 8080 8080 8080 8080 8080
00000070: 8080 8080 8080 8080 8080 8080 8080 8080
00000080: 8080 8080 8080 8080 8080 8080 8080 8080
00000090: 8080 8080 8080 8080 8080 8080 8080 8080
000000a0: 8080 8080 8080 8080 8080 8080 8080 8080
000000b0: 8080 8080 8080 8080 8080 8080 8080 8080
000000c0: 8080 8080 8080 8080 8080 8080 8080 8080
000000d0: 8080 8080 8080 8080 8080 8080 8080 8080
000000e0: 8080 8080 8080 8080 8080 8080 8080 8080
000000f0: 8080 8080 8080 8080 8080 8080 8080 8080

tfl.pseudo_qconst26 i1 [1, 2, 1, 40] scale=0.101960786 zero_point=-128
0.0 0.0 0.0 0.0 0.0 0.0 0.0 0.0
0.0 0.0 0.0 0.0 0.0 0.0 0.0 0.0
0.0 0.0 0.0 0.0 0.0 0.0 0.0 0.0
0.0 0.0 0.0 0.0 0.0 0.0 0.0 0.0
0.0 0.0 0.0 0.0 0.0 0.0 0.0 0.0
0.0 0.0 0.0 0.0 0.0 0.0 0.0 0.0
0.0 0.0 0.0 0.0 0.0 0.0 0.0 0.0
0.0 0.0 0.0 0.0 0.0 0.0 0.0 0.0
0.0 0.0 0.0 0.0 0.0 0.0 0.0 0.0
0.0 0.0 0.0 0.0 0.0 0.0 0.0 0.0
00000000: 8080 8080 8080 8080 8080 8080 8080 8080
00000010: 8080 8080 8080 8080 8080 8080 8080 8080
00000020: 8080 8080 8080 8080 8080 8080 8080 8080
00000030: 8080 8080 8080 8080 8080 8080 8080 8080
00000040: 8080 8080 8080 8080 8080 8080 8080 8080

tfl.pseudo_qconst27 i1 [1, 4, 1, 32] scale=0.39060915 zero_point=-128
0.0 0.0 0.0 0.0 0.0 0.0 0.0 0.0
0.0 0.0 0.0 0.0 0.0 0.0 0.0 0.0
0.0 0.0 0.0 0.0 0.0 0.0 0.0 0.0
0.0 0.0 0.0 0.0 0.0 0.0 0.0 0.0
0.0 0.0 0.0 0.0 0.0 0.0 0.0 0.0
0.0 0.0 0.0 0.0 0.0 0.0 0.0 0.0
0.0 0.0 0.0 0.0 0.0 0.0 0.0 0.0
0.0 0.0 0.0 0.0 0.0 0.0 0.0 0.0
0.0 0.0 0.0 0.0 0.0 0.0 0.0 0.0
0.0 0.0 0.0 0.0 0.0 0.0 0.0 0.0
0.0 0.0 0.0 0.0 0.0 0.0 0.0 0.0
0.0 0.0 0.0 0.0 0.0 0.0 0.0 0.0
0.0 0.0 0.0 0.0 0.0 0.0 0.0 0.0
0.0 0.0 0.0 0.0 0.0 0.0 0.0 0.0
0.0 0.0 0.0 0.0 0.0 0.0 0.0 0.0
0.0 0.0 0.0 0.0 0.0 0.0 0.0 0.0
00000000: 8080 8080 8080 8080 8080 8080 8080 8080
00000010: 8080 8080 8080 8080 8080 8080 8080 8080
00000020: 8080 8080 8080 8080 8080 8080 8080 8080
00000030: 8080 8080 8080 8080 8080 8080 8080 8080
00000040: 8080 8080 8080 8080 8080 8080 8080 8080
00000050: 8080 8080 8080 8080 8080 8080 8080 8080
00000060: 8080 8080 8080 8080 8080 8080 8080 8080
00000070: 8080 8080 8080 8080 8080 8080 8080 8080

tfl.pseudo_qconst28 i1 [1, 10, 1, 64] scale=0.025504066 zero_point=-128
0.0 0.0 0.0 0.0 0.0 0.0 0.0 0.0
0.0 0.0 0.0 0.0 0.0 0.0 0.0 0.0
0.0 0.0 0.0 0.0 0.0 0.0 0.0 0.0
0.0 0.0 0.0 0.0 0.0 0.0 0.0 0.0
0.0 0.0 0.0 0.0 0.0 0.0 0.0 0.0
0.0 0.0 0.0 0.0 0.0 0.0 0.0 0.0
0.0 0.0 0.0 0.0 0.0 0.0 0.0 0.0
0.0 0.0 0.0 0.0 0.0 0.0 0.0 0.0
0.0 0.0 0.0 0.0 0.0 0.0 0.0 0.0
0.0 0.0 0.0 0.0 0.0 0.0 0.0 0.0
0.0 0.0 0.0 0.0 0.0 0.0 0.0 0.0
0.0 0.0 0.0 0.0 0.0 0.0 0.0 0.0
0.0 0.0 0.0 0.0 0.0 0.0 0.0 0.0
0.0 0.0 0.0 0.0 0.0 0.0 0.0 0.0
0.0 0.0 0.0 0.0 0.0 0.0 0.0 0.0
0.0 0.0 0.0 0.0 0.0 0.0 0.0 0.0
0.0 0.0 0.0 0.0 0.0 0.0 0.0 0.0
0.0 0.0 0.0 0.0 0.0 0.0 0.0 0.0
0.0 0.0 0.0 0.0 0.0 0.0 0.0 0.0
0.0 0.0 0.0 0.0 0.0 0.0 0.0 0.0
0.0 0.0 0.0 0.0 0.0 0.0 0.0 0.0
0.0 0.0 0.0 0.0 0.0 0.0 0.0 0.0
0.0 0.0 0.0 0.0 0.0 0.0 0.0 0.0
0.0 0.0 0.0 0.0 0.0 0.0 0.0 0.0
0.0 0.0 0.0 0.0 0.0 0.0 0.0 0.0
0.0 0.0 0.0 0.0 0.0 0.0 0.0 0.0
0.0 0.0 0.0 0.0 0.0 0.0 0.0 0.0
0.0 0.0 0.0 0.0 0.0 0.0 0.0 0.0
0.0 0.0 0.0 0.0 0.0 0.0 0.0 0.0
0.0 0.0 0.0 0.0 0.0 0.0 0.0 0.0
0.0 0.0 0.0 0.0 0.0 0.0 0.0 0.0
0.0 0.0 0.0 0.0 0.0 0.0 0.0 0.0
00000000: 8080 8080 8080 8080 8080 8080 8080 8080
00000010: 8080 8080 8080 8080 8080 8080 8080 8080
00000020: 8080 8080 8080 8080 8080 8080 8080 8080
00000030: 8080 8080 8080 8080 8080 8080 8080 8080
00000040: 8080 8080 8080 8080 8080 8080 8080 8080
00000050: 8080 8080 8080 8080 8080 8080 8080 8080
00000060: 8080 8080 8080 8080 8080 8080 8080 8080
00000070: 8080 8080 8080 8080 8080 8080 8080 8080
00000080: 8080 8080 8080 8080 8080 8080 8080 8080
00000090: 8080 8080 8080 8080 8080 8080 8080 8080
000000a0: 8080 8080 8080 8080 8080 8080 8080 8080
000000b0: 8080 8080 8080 8080 8080 8080 8080 8080
000000c0: 8080 8080 8080 8080 8080 8080 8080 8080
000000d0: 8080 8080 8080 8080 8080 8080 8080 8080
000000e0: 8080 8080 8080 8080 8080 8080 8080 8080
000000f0: 8080 8080 8080 8080 8080 8080 8080 8080

tfl.pseudo_qconst29 i1 [1, 14, 1, 64] scale=0.022958368 zero_point=-128
0.0 0.0 0.0 0.0 0.0 0.0 0.0 0.0
0.0 0.0 0.0 0.0 0.0 0.0 0.0 0.0
0.0 0.0 0.0 0.0 0.0 0.0 0.0 0.0
0.0 0.0 0.0 0.0 0.0 0.0 0.0 0.0
0.0 0.0 0.0 0.0 0.0 0.0 0.0 0.0
0.0 0.0 0.0 0.0 0.0 0.0 0.0 0.0
0.0 0.0 0.0 0.0 0.0 0.0 0.0 0.0
0.0 0.0 0.0 0.0 0.0 0.0 0.0 0.0
0.0 0.0 0.0 0.0 0.0 0.0 0.0 0.0
0.0 0.0 0.0 0.0 0.0 0.0 0.0 0.0
0.0 0.0 0.0 0.0 0.0 0.0 0.0 0.0
0.0 0.0 0.0 0.0 0.0 0.0 0.0 0.0
0.0 0.0 0.0 0.0 0.0 0.0 0.0 0.0
0.0 0.0 0.0 0.0 0.0 0.0 0.0 0.0
0.0 0.0 0.0 0.0 0.0 0.0 0.0 0.0
0.0 0.0 0.0 0.0 0.0 0.0 0.0 0.0
0.0 0.0 0.0 0.0 0.0 0.0 0.0 0.0
0.0 0.0 0.0 0.0 0.0 0.0 0.0 0.0
0.0 0.0 0.0 0.0 0.0 0.0 0.0 0.0
0.0 0.0 0.0 0.0 0.0 0.0 0.0 0.0
0.0 0.0 0.0 0.0 0.0 0.0 0.0 0.0
0.0 0.0 0.0 0.0 0.0 0.0 0.0 0.0
0.0 0.0 0.0 0.0 0.0 0.0 0.0 0.0
0.0 0.0 0.0 0.0 0.0 0.0 0.0 0.0
0.0 0.0 0.0 0.0 0.0 0.0 0.0 0.0
0.0 0.0 0.0 0.0 0.0 0.0 0.0 0.0
0.0 0.0 0.0 0.0 0.0 0.0 0.0 0.0
0.0 0.0 0.0 0.0 0.0 0.0 0.0 0.0
0.0 0.0 0.0 0.0 0.0 0.0 0.0 0.0
0.0 0.0 0.0 0.0 0.0 0.0 0.0 0.0
0.0 0.0 0.0 0.0 0.0 0.0 0.0 0.0
0.0 0.0 0.0 0.0 0.0 0.0 0.0 0.0
00000000: 8080 8080 8080 8080 8080 8080 8080 8080
00000010: 8080 8080 8080 8080 8080 8080 8080 8080
00000020: 8080 8080 8080 8080 8080 8080 8080 8080
00000030: 8080 8080 8080 8080 8080 8080 8080 8080
00000040: 8080 8080 8080 8080 8080 8080 8080 8080
00000050: 8080 8080 8080 8080 8080 8080 8080 8080
00000060: 8080 8080 8080 8080 8080 8080 8080 8080
00000070: 8080 8080 8080 8080 8080 8080 8080 8080
00000080: 8080 8080 8080 8080 8080 8080 8080 8080
00000090: 8080 8080 8080 8080 8080 8080 8080 8080
000000a0: 8080 8080 8080 8080 8080 8080 8080 8080
000000b0: 8080 8080 8080 8080 8080 8080 8080 8080
000000c0: 8080 8080 8080 8080 8080 8080 8080 8080
000000d0: 8080 8080 8080 8080 8080 8080 8080 8080
000000e0: 8080 8080 8080 8080 8080 8080 8080 8080
000000f0: 8080 8080 8080 8080 8080 8080 8080 8080
